…
  outputs_dict = torch.load(bf, map_location=torch.device(f'cuda:{local_rank}'))
[train] News Graph Info: Data(x=[51283, 38], edge_index=[2, 636901], edge_attr=[636901], num_nodes=51283)
[train] entity_neighbor list Length: 850165
-----------------------------------------------------
Dict length: 17585
Have words: 17042 (cached)
Missing rate: 0.030878589707136764
-----------------------------------------------------
Dict length: 37533
Have words: 30806 (cached)
Missing rate: 0.17922894519489516
DistributedDataParallel(
  (module): GLORY(
    (local_news_encoder): NewsEncoder(
      (word_encoder): Embedding(37534, 300, padding_idx=0)
      (attention): Sequential(
        (0) - Dropout(p=0.2, inplace=False): x -> x
        (1) - MultiHeadAttention(
        (W_Q): Linear(in_features=1000, out_features=1000, bias=True)
        (W_K): Linear(in_features=1000, out_features=1000, bias=False)
        (W_V): Linear(in_features=1000, out_features=1000, bias=True)
        (scaled_dot_product_attn): ScaledDotProductAttention()
      ): x, x, x, mask -> x
        (2) - LayerNorm((1000,), eps=1e-05, elementwise_affine=True): x -> x
        (3) - Dropout(p=0.2, inplace=False): x -> x
        (4) - AttentionPooling(
        (att_fc1): Linear(in_features=1000, out_features=200, bias=True)
        (att_fc2): Linear(in_features=200, out_features=1, bias=True)
      ): x, mask -> x
        (5) - LayerNorm((1000,), eps=1e-05, elementwise_affine=True): x -> x
      )
      (last_encoder): Linear(in_features=1000, out_features=400, bias=True)
      (attetio): Sequential(
        (0) - Dropout(p=0.2, inplace=False): x -> x
        (1) - MultiHeadAttention(
        (W_Q): Linear(in_features=300, out_features=400, bias=True)
        (W_K): Linear(in_features=300, out_features=400, bias=False)
        (W_V): Linear(in_features=300, out_features=400, bias=True)
        (scaled_dot_product_attn): ScaledDotProductAttention()
      ): x, x, x, mask -> x
        (2) - LayerNorm((400,), eps=1e-05, elementwise_affine=True): x -> x
        (3) - Dropout(p=0.2, inplace=False): x -> x
        (4) - AttentionPooling(
        (att_fc1): Linear(in_features=400, out_features=200, bias=True)
        (att_fc2): Linear(in_features=200, out_features=1, bias=True)
      ): x, mask -> x
        (5) - LayerNorm((400,), eps=1e-05, elementwise_affine=True): x -> x
      )
    )
    (global_news_short_encoder): Sequential(
      (0) - GatedGraphConv(400, num_layers=3): x, index -> x
    )
    (global_news_long_encoder): GlobalNewsLongEncoder(
      (mha): MultiHeadAttention(
        (W_Q): Linear(in_features=400, out_features=400, bias=True)
        (W_K): Linear(in_features=400, out_features=400, bias=False)
        (W_V): Linear(in_features=400, out_features=400, bias=True)
        (scaled_dot_product_attn): ScaledDotProductAttention()
      )
      (dropout): Dropout(p=0.2, inplace=False)
      (ln_after_flat): LayerNorm((400,), eps=1e-05, elementwise_affine=True)
      (pool): AttentionPooling(
        (att_fc1): Linear(in_features=400, out_features=200, bias=True)
        (att_fc2): Linear(in_features=200, out_features=1, bias=True)
      )
      (ln_out): LayerNorm((400,), eps=1e-05, elementwise_affine=True)
    )
    (entity_embedding_layer): Embedding(17586, 100, padding_idx=0)
    (local_entity_encoder): Sequential(
      (0) - Embedding(17586, 100, padding_idx=0): x -> x
      (1) - EntityEncoder(
      (atte): Sequential(
        (0) - Dropout(p=0.2, inplace=False): x -> x
        (1) - MultiHeadAttention(
        (W_Q): Linear(in_features=100, out_features=100, bias=True)
        (W_K): Linear(in_features=100, out_features=100, bias=False)
        (W_V): Linear(in_features=100, out_features=100, bias=True)
        (scaled_dot_product_attn): ScaledDotProductAttention()
      ): x, x, x, mask -> x
        (2) - LayerNorm((100,), eps=1e-05, elementwise_affine=True): x -> x
        (3) - Dropout(p=0.2, inplace=False): x -> x
        (4) - AttentionPooling(
        (att_fc1): Linear(in_features=100, out_features=200, bias=True)
        (att_fc2): Linear(in_features=200, out_features=1, bias=True)
      ): x, mask -> x
        (5) - LayerNorm((100,), eps=1e-05, elementwise_affine=True): x -> x
        (6) - Linear(in_features=100, out_features=400, bias=True): x -> x
        (7) - LeakyReLU(negative_slope=0.2): x -> x
      )
    ): x, mask -> x
    )
    (global_entity_encoder): Sequential(
      (0) - Embedding(17586, 100, padding_idx=0): x -> x
      (1) - GlobalEntityEncoder(
      (atte): Sequential(
        (0) - Dropout(p=0.2, inplace=False): x -> x
        (1) - MultiHeadAttention(
        (W_Q): Linear(in_features=100, out_features=400, bias=True)
        (W_K): Linear(in_features=100, out_features=400, bias=False)
        (W_V): Linear(in_features=100, out_features=400, bias=True)
        (scaled_dot_product_attn): ScaledDotProductAttention()
      ): x, x, x, mask -> x
        (2) - LayerNorm((400,), eps=1e-05, elementwise_affine=True): x -> x
        (3) - Dropout(p=0.2, inplace=False): x -> x
        (4) - AttentionPooling(
        (att_fc1): Linear(in_features=400, out_features=200, bias=True)
        (att_fc2): Linear(in_features=200, out_features=1, bias=True)
      ): x, mask -> x
        (5) - LayerNorm((400,), eps=1e-05, elementwise_affine=True): x -> x
      )
    ): x, mask -> x
    )
    (feature_gate): FeatureGate(
      (f_dense): Linear(in_features=800, out_features=400, bias=True)
      (g_dense): Linear(in_features=800, out_features=400, bias=True)
    )
    (click_encoder): ClickEncoder(
      (atte): Sequential(
        (0) - <function ClickEncoder.__init__.<locals>.<lambda> at 0x7f8bcc767130>: a, b, c -> x
        (1) - AttentionPooling(
        (att_fc1): Linear(in_features=400, out_features=200, bias=True)
        (att_fc2): Linear(in_features=200, out_features=1, bias=True)
      ): x -> x
      )
    )
    (user_encoder): UserEncoder(
      (atte): Sequential(
        (0) - MultiHeadAttention(
        (W_Q): Linear(in_features=400, out_features=400, bias=True)
        (W_K): Linear(in_features=400, out_features=400, bias=False)
        (W_V): Linear(in_features=400, out_features=400, bias=True)
        (scaled_dot_product_attn): ScaledDotProductAttention()
      ): x, x, x, mask -> x
        (1) - AttentionPooling(
        (att_fc1): Linear(in_features=400, out_features=200, bias=True)
        (att_fc2): Linear(in_features=200, out_features=1, bias=True)
      ): x, mask -> x
      )
    )
    (candidate_encoder): CandidateEncoder(
      (atte): Sequential(
        (0) - <function CandidateEncoder.__init__.<locals>.<lambda> at 0x7f8bcc766a70>: a, b, c -> x
        (1) - AttentionPooling(
        (att_fc1): Linear(in_features=400, out_features=200, bias=True)
        (att_fc2): Linear(in_features=200, out_features=1, bias=True)
      ): x -> x
        (2) - Linear(in_features=400, out_features=400, bias=True): x -> x
        (3) - LeakyReLU(negative_slope=0.2): x -> x
      )
    )
    (click_predictor): DotProduct()
    (loss_fn): NCELoss()
  )
)
[0] Training:   0%|          | 0/36930 [00:00<?, ?it/s][DEBUG] reading behaviors_path: /home/zhuzy/projects/GLORY_simple/N/A
[DEBUG] opening filename     : /home/zhuzy/projects/GLORY_simple/data/MINDsmall_bots_strong/train/behaviors_np4_0.tsv
…
